DDQN_model.pth (torch, 21094 bytes, 6 tensors)

layer1.weight f4 [64, 4]
000000 25 4b 77 3e 5b fc e4 be 9b d2 7d bd dd 39 ae be
       0.24149759 -0.44723782 -0.061968427 -0.3402852
000010 d5 38 1d bf 8e da 61 be 6b e9 63 bf 87 25 5b bf
       -0.61414844 -0.22056028 -0.8902804 -0.8560414
000020 88 21 29 be 6a 94 27 3f b5 c2 4c 3f 9a 70 8c 3c
       -0.16516697 0.65460837 0.799846 0.017143536
000030 e9 ad 15 3e ff 6f 5f bb f0 59 80 3f 9e 09 3e 3f
       0.14617123 -0.0034093854 1.0027447 0.74233425
000040 53 76 85 3f 8d 2a 62 3f 2d 57 10 3f d7 73 29 3f
       1.0426735 0.8834618 0.5638302 0.6619238
000050 44 15 8b be b9 61 d0 bd 86 5d 0f c0 81 71 af be
       -0.27164662 -0.10174889 -2.2400832 -0.34266284
000060 8c 40 8e be 7a 81 be 3e 10 9f 8e be 2b 38 21 3e
       -0.2778362 0.37208158 -0.2785573 0.15744083
000070 3f df e4 3e 53 89 4c 3e 22 cb 1c 40 4d 92 6c 3f
       0.44701573 0.1997426 2.4498982 0.9241074
000080 f9 95 a2 be cf 95 83 bf 63 a6 9c 3f fd 97 da 3e
       -0.31755045 -1.0280093 1.2238277 0.42694083
000090 71 3d a0 3d e5 1c 10 3f 19 8d 07 c0 b6 41 e2 bf
       0.07824219 0.5629409 -2.117987 -1.7676303
0000a0 81 b7 62 bf 2a 00 50 bf 1a d1 7d 3e 0a e0 e6 be
       -0.88561255 -0.8125025 0.24786797 -0.45092803
0000b0 0b 10 83 3f b0 a2 d5 3d 15 ed 41 3e 34 1f 0c bd
       1.0239271 0.10431421 0.18938096 -0.034209445
0000c0 4c 01 9e 3e 10 20 80 bf e4 de 9d bf f5 57 41 bf
       0.30860364 -1.0009785 -1.2333646 -0.75524837
0000d0 4b 12 0b 3f 92 88 4e 3f d7 eb a1 bd 12 3b 13 bf
       0.5432479 0.8067714 -0.07906311 -0.5751201
0000e0 74 f7 10 3f 54 34 e9 3d f2 41 1d 40 f2 1e 9b bf
       0.56627584 0.11386934 2.45715 -1.2118819
0000f0 2e 9b 83 3e 2d 98 dd 3e 82 d9 01 40 ac 6b c7 3e
       0.2570433 0.43280163 2.0289006 0.38949335
000100 f2 56 34 3d 81 96 1f 3e f2 1f a8 be 33 ca fe 3d
       0.04402823 0.15584756 -0.32836872 0.1244091
000110 bf 28 2b 3f 39 41 3e bf af 24 d3 3e 6e 45 41 bf
       0.6685905 -0.7431827 0.41238925 -0.75496566
000120 4e 57 13 3e 3f 93 36 be b4 28 dd be 9b 26 fd 3d
       0.14388773 -0.17829607 -0.43195117 0.12360879
000130 89 77 2d bf 94 16 94 be 7f c6 63 3f c1 5c c8 3e
       -0.6776052 -0.28923476 0.88974756 0.39133266
000140 78 2b 95 bf 98 11 0a 3f a8 d1 cb 3f 2e 5e 97 3f
       -1.1653891 0.53933096 1.5923357 1.1825616
000150 95 23 c4 3e 2d cd 3d bf fe f0 cd 3f e5 3b cf be
       0.38308397 -0.741412 1.608917 -0.40475383
000160 a0 c6 d3 be 30 fd 8e bf 13 6d 22 40 96 8b e5 3e
       -0.41362476 -1.1171017 2.5379074 0.44833058
000170 dc 48 2a 3d 1f 40 20 3e f8 02 91 3b 0e 7c 3a 3d
       0.04157339 0.1564946 0.0044254027 0.045528464
000180 7c df 10 bf 44 61 98 3f be 3e 22 40 19 df 81 3f
       -0.5659101 1.1904683 2.5350795 1.0146209
000190 e1 b0 19 bf 2f f8 65 3f ab 3a 04 40 ad 52 04 bf
       -0.6003552 0.89831823 2.0660808 -0.51688653
0001a0 b6 dc 3d 3e 52 08 83 be 9d 8c e5 bf c2 78 08 bf
       0.18541226 -0.25592285 -1.7933537 -0.5330926
0001b0 65 7b a3 3f f4 46 7c 3d 4d 18 be bf 5b 87 c3 bf
       1.2772032 0.061591104 -1.4851166 -1.5275682
0001c0 bd de 1a 3f 0a 7f 0a bf fc 96 c1 be 66 cf eb 3e
       0.6049612 -0.54100096 -0.37810504 0.4605667
0001d0 9f 1e d8 be 94 1b 09 3f 9c c8 eb 3f bf 02 03 3e
       -0.42210862 0.53557706 1.8420596 0.12794016
0001e0 e7 10 26 3e 15 45 99 3f bd 24 d5 3f fb 9e 73 3f
       0.16217385 1.1974207 1.6651837 0.9516446
0001f0 67 58 a7 3f 0c 45 f5 bd 17 0b e9 bf b7 c8 b1 be
       1.3073853 -0.1197606 -1.8206509 -0.34723446
000200 0d c0 62 bf 84 66 89 bd 34 b5 1b 40 25 b6 96 3f
       -0.88574296 -0.067090064 2.4329348 1.1774336
000210 99 f8 87 3f 7b b2 01 3f 29 43 20 3f 6c e0 7e bd
       1.0622741 0.50662965 0.6260248 -0.062225744
000220 2e 4b 59 3d f0 cb 5a be 26 c5 ab bf 8b 74 53 be
       0.053050213 -0.21366858 -1.341954 -0.20649926
000230 78 b7 a0 3f 53 4e 89 3e 81 ae 35 bf 84 2a 9b 3e
       1.255599 0.2681757 -0.70969397 0.30305874
000240 26 ca 82 3e 9d 37 22 bf 4f 59 37 3f f3 98 52 be
       0.25544852 -0.6336611 0.7162065 -0.20566158
000250 70 af 36 3e 82 e7 78 bf 9f ab 9d be 1d aa 7f 3e
       0.17840362 -0.9722825 -0.30795 0.24967237
000260 d3 f7 60 bf 31 62 72 be f9 51 22 bf 83 73 a6 bc
       -0.8787815 -0.2367027 -0.6340633 -0.020318752
000270 e4 ef 5b 3f 23 82 dc 3e 42 c5 3c be 91 c9 81 3e
       0.8591292 0.43068036 -0.18434623 0.25349095
000280 67 30 7a 3f c5 80 38 bf 53 05 a5 be 91 ac ba 3d
       0.97730106 -0.72071487 -0.32230625 0.09114946
000290 cc 24 75 3c 14 b0 6c bd 19 ef 01 3d 2a 01 f1 be
       0.014962386 -0.05778511 0.031722162 -0.470712
0002a0 9d 0a ac be 60 6c 24 be 91 dc b2 bf 04 3c 60 be
       -0.33601847 -0.16056967 -1.3973562 -0.21897894
0002b0 36 17 0f 3c 8e b7 c0 bd a9 14 90 bf c1 4d bf 3e
       0.008733561 -0.0941001 -1.1256305 0.3736401
0002c0 70 8f f2 3e 02 41 2e 3f 1a 5c 53 be 7a 3e 85 bd
       0.4737506 0.68067944 -0.20640603 -0.06506057
0002d0 f6 b8 fc 3e 15 7b 10 bf 2d 0f db 3f 7b 9b e0 3e
       0.49359864 -0.5643781 1.7114006 0.43868622
0002e0 28 86 2e be 3b 01 e2 bd 59 74 d0 bf 68 86 45 3f
       -0.17043364 -0.11035391 -1.6285506 0.7715821
0002f0 e9 5c 61 bd e9 0d b9 3d fe a3 1d 40 2e 42 aa 3e
       -0.055020247 0.09035856 2.4631343 0.33253616
000300 81 96 ff 3f 13 82 8d 3e 47 ce 7f 3f cf 55 97 3e
       1.9967805 0.276383 0.9992413 0.29557654
000310 82 6b 98 3f a7 88 55 bf 9f 31 4e 40 d8 7d 44 3f
       1.1907809 -0.8341164 3.2217786 0.7675452
000320 3f 2c 59 3f 81 d2 ec bd 35 c1 92 be cd 14 78 bd
       0.8483314 -0.11563588 -0.2866303 -0.060566712
000330 f0 02 b1 3b f5 0a 22 3e 02 c2 24 c0 55 2d db 3e
       0.0054019615 0.15824492 -2.5743413 0.42808023
000340 08 e0 28 3e e1 d3 2f 3f fd 9b d6 3e 83 c1 00 3f
       0.16491711 0.68682677 0.41915885 0.50295275
000350 e0 b3 c9 bd fb 36 40 3f b4 39 69 3f 3d 7c 3a 3f
       -0.098487616 0.75083894 0.91103673 0.7284582
000360 07 36 8d 3f 10 96 c5 be d0 97 c1 bf ee e7 bc be
       1.1032113 -0.3859105 -1.5124454 -0.36895698
000370 5b 72 df be f8 92 72 3f b6 65 bd 3e d4 b7 0b bf
       -0.43641934 0.94755507 0.36991662 -0.54577374
000380 b0 f1 5f 3e 11 73 13 be 53 eb f6 bf e8 53 0c be
       0.2186954 -0.14399363 -1.9290565 -0.13703883
000390 2d f2 92 3e d5 58 31 bf 6f 07 82 3f 7c 2f 37 be
       0.2870039 -0.6927617 1.0158519 -0.17889208
0003a0 53 84 d3 bd 96 a4 17 3f b4 22 8a bf f9 c4 99 3e
       -0.10327973 0.59235513 -1.079184 0.3003309
0003b0 c9 c7 de bd d6 03 9a bf ee 17 d8 bf 29 5c 75 bf
       -0.1087795 -1.2032421 -1.6882303 -0.9584375
0003c0 0c 21 6e 3f 06 08 c1 bf 90 0b bf bf c8 44 34 3e
       0.93019176 -1.5080574 -1.4925404 0.17604363
0003d0 d1 80 fd 3e b2 85 15 3e 3c d3 6e 3e 4e 94 c1 3d
       0.49512342 0.14601782 0.23322767 0.09452115
0003e0 f5 3c b8 3f b8 44 33 3f ed 50 9c bf 32 8f 52 3d
       1.4393603 0.7002673 -1.2212197 0.051406093
0003f0 07 8a 27 3f ec 0c 1f be fa bd b4 be 7b 9e bb 3e
       0.6544499 -0.15532273 -0.3530119 0.36644349

layer1.bias f4 [64]
000000 5c eb 20 3f 50 43 01 be d0 c0 21 3e a0 7f 59 be
       0.6285913 -0.12623334 0.15796208 -0.21240091
000010 a8 aa d3 be ff 9a 8e be 08 2a 26 3f 78 90 b9 be
       -0.41341138 -0.27852628 0.64907885 -0.36243033
000020 58 01 aa be c3 7a 46 3f 7d 19 54 3e 5d df 7e 3e
       -0.3320415 0.7753107 0.20712848 0.24889894
000030 57 e0 d5 3d a4 d3 64 3e 88 72 70 bf 47 c8 0f bf
       0.1044318 0.2234636 -0.9392476 -0.56164974
000040 4c e4 1e 3f ae 73 0f 3f f3 2d 36 3f e4 79 3a 3d
       0.62067103 0.5603589 0.7116386 0.0455264
000050 14 56 b4 be 1e 6e 42 3f ea 9f a4 3b 4a 8e 32 3f
       -0.35221922 0.75949275 0.005023946 0.69748366
000060 d4 ec 76 3f ed 8e 1c 3e cf 8d 01 bf 03 62 16 bf
       0.9645512 0.15288897 -0.5060701 -0.58743304
000070 b8 b2 14 3f 09 70 69 3f db 06 e9 be d2 f0 ee bd
       0.58085203 0.9118658 -0.45513043 -0.116670266
000080 22 0a cc 3e 61 e2 6d bf 87 a0 0d 3f 6b 72 81 3e
       0.3985148 -0.9292355 0.5532307 0.25282606
000090 b1 8c 32 3f 4b ae 9b be 1a 14 ea 3e 22 4f e8 be
       0.6974593 -0.30406412 0.4571846 -0.45372874
0000a0 06 99 06 3e 67 51 05 3f b1 e6 18 bf 39 78 f8 3e
       0.13144311 0.52077335 -0.5972701 0.48529223
0000b0 3c e4 72 bf 72 90 94 3f 9f 41 24 3e 04 e7 15 bf
       -0.9487951 1.1606581 0.16040657 -0.58555627
0000c0 5e e7 9f be 6e f1 86 be 46 12 96 3e b9 52 c5 3e
       -0.31231207 -0.2635607 0.29310817 0.38539675
0000d0 0b 74 6b 3e 14 3b 1b 3f 14 a9 f5 3e 74 53 b1 3e
       0.22993486 0.6063702 0.4798056 0.34633982
0000e0 d6 c1 0e 3f 81 4d 59 3f c9 12 e7 3e cc fe 8c bc
       0.5576452 0.84883887 0.4513152 -0.01721134
0000f0 19 de 67 3e 71 10 6a bf 60 3f 91 bf 95 6d 6c bf
       0.22643317 -0.9143134 -1.1347466 -0.9235471

layer2.weight f4 [64, 64]
000000 c3 af 37 3e 07 d9 5a be 0f d7 93 bd 5b 52 b3 be
       0.17938142 -0.21371852 -0.072187535 -0.3502377
000010 bb ca 21 3d 8b c5 dc bf dc 6a 0d 3f f5 58 43 bf
       0.03949998 -1.7247785 0.5524118 -0.7630761
000020 10 53 1e bd 19 58 bd be 06 f9 92 3e 6f 5b 20 bd
       -0.038653433 -0.36981276 0.28705615 -0.039149698
000030 1f 96 bc 3d 1a bd f5 3d e0 b2 c4 3d f3 a2 5d bf
       0.09208321 0.11998959 0.0960443 -0.86576766
000040 8d 68 5f 3e e3 4c ea bd 11 a2 f2 3c e2 d2 a5 3e
       0.21817227 -0.11440446 0.029618295 0.32387453
000050 4a b6 84 3e 83 61 ff 3e ee 91 75 3e 79 51 e9 3e
       0.25920326 0.49879083 0.23981449 0.4556997
000060 f2 85 3b 3e e0 60 5a 3e 44 5d fa bf 11 12 40 be
       0.18312815 0.21326017 -1.9559712 -0.18756892
000070 06 d4 11 3e a5 77 8e 3e b7 d6 d7 bb 06 d3 08 bf
       0.14241037 0.27825657 -0.0065868753 -0.53446996
000080 ba b1 af 3e 37 f8 02 bf 7d de d0 3e 36 d4 c3 3e
       0.34315282 -0.51159996 0.40794745 0.38247842
000090 13 38 2f 3e ad 46 94 3d b4 d1 09 3d 57 0b 02 be
       0.17111234 0.07240043 0.033647254 -0.12699638
0000a0 bb ef 84 3e 81 21 91 3d b7 1e a0 be 68 48 0e ba
       0.2596415 0.070864685 -0.31273434 -0.00054276595
0000b0 c4 d4 59 3d 5f b0 7a 3e 56 62 00 3e 23 f8 c4 bf
       0.053181425 0.24481343 0.12537512 -1.5388225
0000c0 84 97 2f 3d c2 86 19 3b 95 ed 9c 3e c2 8d 18 3e
       0.042869106 0.002342627 0.3065001 0.14897826
0000d0 a9 b8 e0 3d 85 07 f4 3e dd 91 93 bd bd fc 9b 3e
       0.10972721 0.47661987 -0.072055556 0.30466262
0000e0 19 50 20 3f a4 4c fa bc 35 08 27 bd fb 68 b3 be
       0.6262222 -0.030554123 -0.04077931 -0.3504103
0000f0 a3 4e 07 be 4c a3 cc bf 61 b1 4f 3e d5 cb ea be
       -0.13213591 -1.5987334 0.20282508 -0.45858636
000100 4c 69 d1 3e 27 a0 76 be ca f6 57 3e 86 ac 36 bf
       0.40900648 -0.24084531 0.21090236 -0.71357
000110 94 7a 5d bd 93 a7 bc bf 9d f0 13 3f 8c d6 67 be
       -0.054071978 -1.473864 0.5778902 -0.22640437
000120 00 af 20 be 91 28 08 be c5 2e 2f 3d 8f ff e5 3e
       -0.15691757 -0.13296725 0.042769212 0.44921538
000130 5c d9 33 3e 38 1d 71 3e 7d 8f 11 be ae 2e c5 bf
       0.17563385 0.23546302 -0.14214893 -1.540487
000140 1d a7 9a 3e 9d 7d 16 3f 9c 02 31 3e a3 46 a8 be
       0.30205622 0.5878542 0.17286152 -0.32866392
000150 23 97 0e be d6 57 1a 3f fb 90 c1 bd 70 18 56 3e
       -0.13924842 0.60290277 -0.09451481 0.2090776
000160 24 37 50 3e 73 f1 99 3d 06 0d 18 bf 96 26 d1 be
       0.20333534 0.07516756 -0.5939487 -0.4084975
000170 3a 4e 9f be b7 3d e9 3e 41 1b 8a bd a4 d0 c4 bd
       -0.3111437 0.45554897 -0.067434795 -0.096101075
000180 96 fb 0c be 3f 49 c5 3e 9b ba f3 3e ad d2 50 3e
       -0.13767847 0.38532445 0.47603306 0.20392866
000190 0e 3c 88 3d ab dd 6b 3e 98 46 5c 3e cc 34 3c be
       0.066520795 0.23033778 0.21511304 -0.18379515
0001a0 7d d1 97 3c 88 d5 03 3e f6 58 c6 bd a0 bf 9d 3e
       0.018532509 0.12874424 -0.09684937 0.3081026
0001b0 ab 2c bb be 22 38 16 3e 2d 40 4d be 94 c9 fe bf
       -0.36557516 0.1466985 -0.20044012 -1.9905267
0001c0 4c 2d a5 3d 77 af 17 be 89 41 6e 3e 8a a4 e3 bd
       0.0806528 -0.14813028 0.23267187 -0.11115368
0001d0 fc de 4a be 1f 81 c7 3d af dd 0a be e3 e4 9e bd
       -0.19811624 0.09741425 -0.13561128 -0.077585004
0001e0 fc 1c f6 3e c2 11 78 3e 5e dc 1f 3e 2a 11 e0 be
       0.48068988 0.24225524 0.15611407 -0.43763095
0001f0 d1 c6 81 3e b3 02 d3 bf ec e0 8f bd f4 65 14 be
       0.25346997 -1.6485199 -0.07025322 -0.14492017
000200 fe d3 06 bf c9 bf 3f 3f 85 fb c5 be e0 0e d1 3e
       -0.52667224 0.74902016 -0.38668457 0.4083166
000210 e8 90 63 3e 74 79 f9 3f 39 00 ad bf db 72 98 3e
       0.22223246 1.949019 -1.3515693 0.29775128
000220 c1 1d b6 3e 93 66 02 be 19 91 d1 3e 06 67 cb be
       0.35569575 -0.12734441 0.40931013 -0.39727038
000230 11 87 be bc 3c b9 7f 3e dc 41 09 3f eb 97 d0 3f
       -0.023257764 0.24973005 0.5361612 1.6296362
000240 16 83 83 bf fb 8d 12 bf 1b ad 20 bf b5 02 a8 3e
       -1.0274379 -0.57247895 -0.6276414 0.32814565
000250 54 d1 70 3f 17 49 62 bf d6 4f 6b 3e 20 df 59 bf
       0.9406941 -0.88392776 0.22979674 -0.85106087
000260 2e 08 68 bf f0 51 5c bf ed 30 12 3f 32 fa 9b 3e
       -0.9063748 -0.86062527 0.57105905 0.3046432
000270 a5 b1 4a be 74 cb 86 bf 15 9e 98 3f 52 9d 54 3f
       -0.19794329 -1.0530839 1.1923243 0.8305255
000280 9f 34 00 3f e7 81 9d 3e fa 3a 4e bf 2a 52 8c bc
       0.50080293 0.3076317 -0.8055874 -0.017129023
000290 8a 2b 2f bf a0 7f 16 3f c1 eb 36 3e 57 7c f2 3e
       -0.6842581 0.5878849 0.1786337 0.4736049
0002a0 16 ae fa bc 8f 67 39 bf 03 4a 87 3f 67 fe 88 be
       -0.030600589 -0.7242364 1.0569462 -0.26756594
0002b0 17 0c 08 3f 8b 50 6c be 43 c6 3b bf 5b 00 85 3f
       0.5314345 -0.230776 -0.733494 1.0390733
0002c0 ed 39 68 3e 6f 89 e7 3e 8e 60 83 3e c3 f1 88 bf
       0.22678347 0.4522204 0.25659603 -1.069878
0002d0 ca 05 cb 3d 9f 48 8c be 02 c7 1d 3f 5d a8 b2 be
       0.099132136 -0.27399155 0.61631787 -0.34894076
0002e0 28 ea 1c bf 48 90 ff be e3 39 c8 be 55 02 c0 3e
       -0.61294794 -0.49914765 -0.39106664 0.3750178
0002f0 3c 4c 17 3e 4c 2c d0 3f f1 57 29 3f 56 a5 73 3f
       0.14775175 1.6263518 0.6614981 0.9517416
000300 65 a4 3e be e2 d1 27 3d 0e f6 df bd 1a e6 c7 be
       -0.18617399 0.040971644 -0.10935603 -0.3904274
000310 58 fd e3 bd e4 94 f1 be ca 1f 32 be 7b 66 22 3d
       -0.11132306 -0.47183907 -0.17394939 0.039648514
000320 04 a0 a6 3e 35 39 57 be 59 9d 92 3d 8f 36 aa be
       0.32543957 -0.21017917 0.07158918 -0.3324475
000330 c2 9f 65 bd c6 ea 8d be c9 c6 8c 3e eb 5f 28 bf
       -0.05606056 -0.2771818 0.2749541 -0.6577136
000340 27 ff 24 bc 09 2b 28 3e 14 98 64 3c 27 6e 2e 3e
       -0.010070599 0.16422667 0.013952274 0.17034207
000350 57 ea 7b 3e 66 e1 2f be ba 49 32 be 72 43 50 be
       0.24601112 -0.17175826 -0.17410937 -0.20338228
000360 00 b6 43 be ae 0a 89 bd 73 c2 2d bf d9 38 0c be
       -0.19112396 -0.0669149 -0.6787483 -0.1369356
000370 87 c8 a0 3e 37 93 a2 bd 5b 6f 3e bf 50 ca c7 bd
       0.3140299 -0.07938235 -0.74388665 -0.09755385
000380 4c 58 b0 be e7 c5 6a be 91 4d 4b be 61 db 8f be
       -0.34442365 -0.22927056 -0.19853808 -0.2809706
000390 24 47 8c bd 80 77 34 3a b4 03 85 bd 3a 4d 4f be
       -0.068495065 0.0006884262 -0.06494847 -0.20244303
0003a0 8b b6 ec 3d f6 24 8d bf cb 39 a9 3d bd f5 71 be
       0.11558255 -1.1026905 0.08262976 -0.23628898
0003b0 3b bd f6 3b 89 f9 80 be 30 90 16 3e 06 48 01 bf
       0.0075298822 -0.2519038 0.1470344 -0.50500524
0003c0 b9 5a a9 be 22 d2 b6 3d c7 68 58 3e 68 db 58 3e
       -0.33077028 0.089267984 0.2113372 0.21177447
0003d0 7b e3 c2 3e bd 90 d6 be 61 66 80 be b9 62 4c be
       0.3806418 -0.41907302 -0.2507811 -0.19959535
0003e0 c6 e2 33 be 45 34 b7 3d 80 9a de 3c 62 6b 5e be
       -0.17566976 0.089455165 0.02717328 -0.21720651
0003f0 ae a9 f0 3d aa 63 f1 3c 38 40 9f be 00 14 c4 3e
       0.11751114 0.029466469 -0.31103683 0.3829651

layer2.bias f4 [64]
000000 91 bd e8 3e db e1 13 3f 9b f4 64 bf 62 a9 04 be
       0.45457128 0.57766503 -0.8943574 -0.1295524
000010 25 88 56 be bd cf c3 bc 73 d7 f1 3e 1d 37 09 3f
       -0.20950373 -0.023902768 0.47234687 0.5359972
000020 e5 f2 ef be 26 99 9a 3e fe 55 0e 3f e4 7e 84 bc
       -0.46865 0.30194968 0.55599964 -0.016173787
000030 3d 23 36 bd 00 0f e8 be 54 5c 04 3f 40 5c 51 be
       -0.0444672 -0.45323944 0.5170338 -0.20445347
000040 93 16 04 3f 5f a8 16 3f dd 44 f8 3e f9 85 07 3f
       0.51596946 0.58850664 0.4849004 0.529388
000050 b7 84 e2 3d d3 17 22 bc a1 6c 06 3f 38 31 7f be
       0.110604696 -0.009893375 0.52509505 -0.24921119
000060 ad c1 a2 3c 49 d8 fa 3e cc 56 42 be 63 15 b0 3d
       0.019867742 0.48993137 -0.18978423 0.08597829
000070 df 06 5a bf f9 69 07 3f 94 7f 4d be 35 9a 44 bb
       -0.85166734 0.52896076 -0.20068198 -0.002999914
000080 3f 57 d9 3e d5 92 99 be 1b 48 9a 3e be 0f 0a 3f
       0.42449376 -0.29994836 0.30133137 0.5393027
000090 e1 c1 06 bf cf e3 0b 3f e6 eb 05 3f bc 49 07 3f
       -0.52639586 0.54644483 0.5231308 0.52846885
0000a0 1c a2 fe 3e 55 79 88 be d8 78 5f be a2 6d fe 3e
       0.49733055 -0.2665507 -0.21823442 0.49693018
0000b0 79 77 03 3f 28 7a c9 3e 74 19 63 3e 73 8f 8c 3e
       0.51354176 0.3935101 0.22177678 0.27453193
0000c0 e6 2d b4 3e 0e 49 06 3f 88 ff 00 3f 84 93 21 bf
       0.35191268 0.5245522 0.5038991 -0.63115716
0000d0 b0 72 04 bf 60 c1 bd be 70 1d 4f bd 47 e2 fa 3e
       -0.517375 -0.37061596 -0.050565183 0.4900076
0000e0 f3 fe 09 3f 6d be 01 3f 21 e3 fd 3e fb 5f 8b be
       0.53904647 0.5068119 0.49587348 -0.27221665
0000f0 ee 3a 74 be 37 38 04 3f 82 eb b9 be cf f7 c7 bc
       -0.23850605 0.5164828 -0.3631249 -0.024410157

layer3.weight f4 [2, 64]
000000 64 99 c9 3e ef fd 52 3f ed 5a 1f c0 0f f3 5d be
       0.3937484 0.8241872 -2.4899247 -0.21674751
000010 50 f2 60 bf 8f 1d 55 3f b0 70 79 3f c5 88 3a 3f
       -0.8786974 0.8324823 0.9743757 0.72864944
000020 47 42 50 bf 2c 04 c9 bd 01 96 63 3f 85 58 91 be
       -0.8135113 -0.09815249 0.8890076 -0.28387848
000030 94 1d 12 be 88 db d3 bf 77 e7 29 3f 65 df 81 bf
       -0.14269096 -1.6551371 0.6636881 -1.01463
000040 d7 29 7a 3f 94 8e 68 3f 1b ee fe 3e ea a3 72 3f
       0.9772009 0.90842557 0.49791035 0.94781363
000050 46 70 59 bf e9 ec 5a bf bf c4 2f 3f f4 3a c1 bf
       -0.8493694 -0.85517746 0.68659586 -1.5096116
000060 61 6a 0e 3e e0 5c e3 3e 3d 88 38 bf 94 c3 98 be
       0.13907768 0.44406796 -0.72082883 -0.29836714
000070 45 2e 65 c0 2c d4 68 3f 09 9f 8a c0 c5 f7 d5 bd
       -3.580949 0.9094875 -4.3319135 -0.10447649
000080 41 11 02 3f 5d 4c e1 bf 8a 50 5d 3e b6 86 7d 3f
       0.5080758 -1.7601429 0.21612754 0.9903368
000090 62 cf 5a bf ae 6c 59 3f 34 57 6b 3f 78 35 53 3f
       -0.8547269 0.8493146 0.91929936 0.8250346
0000a0 f6 fc 1e 3f 61 e6 bf bf 04 38 2d c0 a8 44 19 3f
       0.6210474 -1.4992181 -2.706544 0.59870386
0000b0 5f 5b 98 3f cc db 09 3f f7 f7 ed bf 04 48 71 bf
       1.1902884 0.5385101 -1.8591298 -0.9425051
0000c0 e2 5d aa bf ad 32 71 3f 66 a8 07 3f d3 89 ff bf
       -1.3309901 0.9421795 0.5299133 -1.9963936
0000d0 4c ae 8e bf ac 83 e6 bf 44 96 85 bf 49 87 00 3f
       -1.1146941 -1.8008933 -1.0436482 0.5020643
0000e0 ca c0 47 3f ed 8e 27 3f fc 84 5e 3f f5 ae 1a c0
       0.7802855 0.6545246 0.8692167 -2.4169285
0000f0 e4 a7 ec bf fa ab 74 3f cb 65 33 c0 d3 e4 51 bd
       -1.8488736 0.95574915 -2.803088 -0.051243614
000100 ba 3f 10 3f 63 88 1a 3f 41 f2 3c c0 ab f6 19 bf
       0.5634724 0.6036436 -2.952286 -0.6014201
000110 f5 08 fd be b0 2d 78 bf 72 f1 65 3f 61 84 76 3f
       -0.49420896 -0.96944714 0.8982154 0.96295744
000120 cf 5b 0f 3d da 8d 7d bf 91 ad 36 3f 06 4d 98 be
       0.034999665 -0.99044573 0.7135859 -0.29746264
000130 fc 93 97 be 98 1b 0a c0 38 ce 2e 3f a2 56 99 3f
       -0.2960509 -2.1579342 0.68283415 1.1979563
000140 0d 36 6b 3f 53 96 68 3f 63 d3 be 3e e4 61 5e 3f
       0.9187935 0.90854377 0.3727065 0.8686812
000150 27 55 ce 3e ad 38 4f c0 a4 31 27 3f f3 c5 df bf
       0.4029934 -3.2378342 0.6531012 -1.7482284
000160 38 93 0a bf b8 52 cd 3e a2 eb 6f be 30 7f a8 bf
       -0.5413089 0.40102172 -0.2342973 -1.3163815
000170 ea 1b 6d c0 f8 c4 24 3f e1 a7 c3 bd e1 27 6e 3e
       -3.7048287 0.6436305 -0.09553505 0.232574
000180 4a 8f 61 3f a2 11 82 bf 42 00 29 bd fd 66 44 3f
       0.88109267 -1.0161631 -0.04126001 0.7671965
000190 d5 a4 ca bf 65 46 28 3f 75 7f 45 3f cd 59 4e 3f
       -1.5831553 0.65732414 0.7714761 0.80605775
0001a0 ce 16 fa 3e 97 91 ea bf 5d 82 e7 bf 6d 44 db 3e
       0.48845524 -1.832568 -1.8086659 0.42825642
0001b0 1e e8 a2 3f e2 3c 9a 3e d2 63 5b bf eb 09 98 bf
       1.2727087 0.30124575 -0.8569919 -1.1878027
0001c0 d1 59 93 bf ff a2 4e 3f e2 a5 1f 3f 2b a7 c9 bf
       -1.1511785 0.8071746 0.6236249 -1.5754141
0001d0 01 c4 ad bf e9 b0 ce bf 92 22 84 3e 29 ee 89 3f
       -1.3575441 -1.6147739 0.25807625 1.0775806
0001e0 52 80 2a 3f 95 ca 8b 3f 55 de 46 3f ae 30 e1 bf
       0.6660205 1.0921198 0.77683 -1.7592981
0001f0 bf bf ce bf 04 3f 92 3f 20 c9 25 c0 b1 52 10 be
       -1.6152266 1.1425481 -2.5904007 -0.14094044

layer3.bias f4 [2]
000000 ee e3 f5 3e 8a 9c ec 3e
       0.4802546 0.4621318
