DDQN_target_model.pth (torch, 21164 bytes, 6 tensors)

layer1.weight f4 [64, 4]
0	0x3e77cae3	0.24198489
1	0xbee3d77e	-0.44500345
2	0xbceb8844	-0.0287515
3	0xbeab8c84	-0.33505642
4	0xbf2fd103	-0.686783
5	0xbe3a3532	-0.18184355
6	0xbf670a02	-0.90249646
7	0xbf52c4fc	-0.82331824
8	0xbe2aca84	-0.16678816
9	0x3f296744	0.66173196
10	0x3f38fd24	0.7226126
11	0x3d1af365	0.037829775
12	0x3e11dc3f	0.14244173
13	0xbc2fffa6	-0.010742104
14	0x3f7e5330	0.99345684
15	0x3f4464de	0.7671641
16	0x3f86010e	1.0469072
17	0x3f614d43	0.8800852
18	0x3f0c590e	0.54823387
19	0x3f2508eb	0.6446673
20	0xbe865ed8	-0.26244235
21	0xbdc11a56	-0.09428851
22	0xc01053fe	-2.2551265
23	0xbeb450e0	-0.35217953
24	0xbe93052f	-0.28714892
25	0x3ec06df1	0.3758388
26	0xbe7c823a	-0.24659052
27	0x3e1a7f98	0.15087736
28	0x3ee5204c	0.44751203
29	0x3e4f55c1	0.20247556
30	0x401a5c50	2.4118843
31	0x3f6a0e27	0.91427845
32	0xbe8d270a	-0.27568847
33	0xbf82b742	-1.0212176
34	0x3f9b72b6	1.2144382
35	0x3ecfbf80	0.4057579
36	0x3db060fb	0.086122476
37	0x3f16a3e9	0.5884386
38	0xc006c7c9	-2.105944
39	0xbfe0fb35	-1.7576662
40	0xbf66dddd	-0.90182287
41	0xbf56a6f6	-0.8384851
42	0x3e8e98a5	0.27850834
43	0xbeee72be	-0.46571916
44	0x3f83297b	1.0247034
45	0x3dd2c4c6	0.10291438
46	0x3e49a184	0.1969052
47	0xbd2aeb06	-0.041728042
48	0x3e9d22c3	0.30690584
49	0xbf83262f	-1.0246028
50	0xbf9b0eee	-1.2113931
51	0xbf438fba	-0.76391184
52	0x3f0c6c10	0.5485239
53	0x3f4bf7b4	0.7967484
54	0xbd23b5a9	-0.039968167
55	0xbf140e82	-0.5783464
56	0x3f1293ff	0.57257074
57	0x3ddc692e	0.10762249
58	0x401a4562	2.4104848
59	0xbf9db720	-1.232151
60	0x3e7ee90b	0.24893586
61	0x3edb6d0b	0.4285663
62	0x4005c2c3	2.0900123
63	0x3ecc3af0	0.39888716
64	0x3d34ccad	0.044140507
65	0x3e207cd7	0.15672623
66	0xbe99092c	-0.2988981
67	0x3e01efb5	0.12689097
68	0x3f2b3662	0.66879857
69	0xbf3df4f9	-0.74201924
70	0x3ee4b654	0.44670355
71	0xbf4061d8	-0.751493
72	0x3e142fc1	0.14471342
73	0xbe30c37b	-0.1726207
74	0xbecc4ca2	-0.39902216
75	0x3e0ac8ff	0.13553236
76	0xbf269f3b	-0.65086716
77	0xbe860380	-0.26174545
78	0x3f5e5293	0.8684475
79	0x3ecf6e17	0.4051368
80	0xbf907c17	-1.1287869
81	0x3f0e5ab3	0.55607146
82	0x3fc8aa3b	1.567695
83	0x3f9958a0	1.1980171
84	0x3ec48f98	0.38390803
85	0xbf3cd755	-0.7376607
86	0x3fd27033	1.644049
87	0xbecbae66	-0.39781493
88	0xbecba13d	-0.39771453
89	0xbf8c36df	-1.0954245
90	0x4020f75d	2.5150979
91	0x3ef59770	0.479671
92	0x3d2c27ff	0.04203033
93	0x3e221572	0.15828493
94	0x3d13cdfe	0.03608512
95	0x3d4e1b1a	0.050318815
96	0xbf132377	-0.5747599
97	0x3f992944	1.1965718
98	0x401c32d3	2.440602
99	0x3f867a14	1.0506005
100	0xbf222e26	-0.63351667
101	0x3f5fdf7f	0.874504
102	0x400611d6	2.0948386
103	0xbef595ec	-0.47965944
104	0x3e37a6eb	0.17934768
105	0xbe8fe13a	-0.28101522
106	0xbfe71914	-1.8054528
107	0xbf0c0158	-0.5468955
108	0x3fa383b1	1.2774564
109	0x3d82de4a	0.063900545
110	0xbfc49161	-1.5356866
111	0xbfc460c5	-1.5342032
112	0x3f1c1563	0.60970134
113	0xbefaff05	-0.4902269
114	0xbeb9f74d	-0.36321488
115	0x3eeb368e	0.4594006
116	0xbeda7849	-0.42669895
117	0x3f0b8606	0.5450138
118	0x3ff07279	1.8784934
119	0x3df4ec1f	0.11959099
120	0x3e184935	0.14871676
121	0x3f94e9cf	1.1633853
122	0x3fd9e2de	1.7022359
123	0x3f80f543	1.0074848
124	0x3fa76392	1.3077261
125	0xbdf9e460	-0.12201762
126	0xbff1d39b	-1.8892702
127	0xbeb0b667	-0.34514162
128	0xbf59b40f	-0.8504037
129	0x3b48637c	0.0030576875
130	0x4019c682	2.402741
131	0x3f9ed483	1.2408603
132	0x3f87fe6d	1.062452
133	0x3f0107f5	0.50402766
134	0x3f165218	0.58719015
135	0xbd97e82f	-0.074173324
136	0x3d577bfb	0.05260847
137	0xbe5e95be	-0.2173681
138	0xbfa7cb1f	-1.3108863
139	0xbe4eb719	-0.20187034
140	0x3fa0e212	1.2568991
141	0x3e8cea66	0.27522582
142	0xbf3621a3	-0.71145076
143	0x3e973879	0.29535273
144	0x3e832ed4	0.25621665
145	0xbf218de9	-0.6310716
146	0x3f3e69e4	0.74380326
147	0xbe4b79d7	-0.19870697
148	0x3e398d97	0.18120418
149	0xbf731e6c	-0.94968295
150	0xbe88e35d	-0.26735964
151	0x3e7acaac	0.24491376
152	0xbf656139	-0.89601475
153	0xbe916dfe	-0.2840423
154	0xbf1ca3cf	-0.6118745
155	0xbc19ade6	-0.0093798395
156	0x3f5c366f	0.8602056
157	0x3ed57468	0.41690373
158	0xbe3fd1bf	-0.18732356
159	0x3e72c3e6	0.23707542
160	0x3f78ef57	0.97240204
161	0xbf3e505a	-0.74341357
162	0xbea2e243	-0.3181325
163	0x3dbe15df	0.09281515
164	0x3c740328	0.014893331
165	0xbd71b91c	-0.059014425
166	0x3d7e71ac	0.062120125
167	0xbeed697a	-0.46369535
168	0xbeac0a9d	-0.33601847
169	0xbe246c60	-0.16056967
170	0xbfb2dc91	-1.3973562
171	0xbe603c04	-0.21897894
172	0x3c2fa8ac	0.010721367
173	0xbdbc8c01	-0.09206391
174	0xbf8be66c	-1.0929694
175	0x3ec39474	0.38199198
176	0x3ef3ed2b	0.47641882
177	0x3f2ce2ba	0.6753346
178	0xbe810233	-0.2519699
179	0xbdb548ed	-0.088518
180	0x3eff4035	0.49853674
181	0xbf0a7ec7	-0.54099697
182	0x3fda3ea2	1.7050364
183	0x3ee20385	0.4414331
184	0xbe2d7efe	-0.16942975
185	0xbdcd51f1	-0.10025395
186	0xbfd119bb	-1.6335977
187	0x3f441903	0.76600665
188	0xbd21f3f0	-0.039539278
189	0x3dc93cc9	0.09826047
190	0x401da329	2.4630835
191	0x3eaf493c	0.3423556
192	0x3ffff51e	1.9996679
193	0x3e844874	0.25836527
194	0x3f7884d2	0.9707767
195	0x3e8bfcd1	0.2734132
196	0x3f98a70a	1.1925976
197	0xbf56246e	-0.8364934
198	0x404cb372	3.1984525
199	0x3f4181b6	0.7558855
200	0x3f59666e	0.8492192
201	0xbdef1d5e	-0.11675523
202	0xbea13216	-0.31483525
203	0xbdbc1bff	-0.09185027
204	0x3bcecc96	0.0063110096
205	0x3e2b8feb	0.16754119
206	0xc0258fca	-2.5869012
207	0x3edbd50c	0.4293598
208	0x3e2a24b7	0.16615568
209	0x3f3001d3	0.68752784
210	0x3ed7d7a3	0.42156705
211	0x3f077957	0.52919525
212	0xbdc66439	-0.09687085
213	0x3f42e60b	0.7613227
214	0x3f70ace2	0.940138
215	0x3f3ea4e4	0.74470353
216	0x3f8d48d3	1.1037849
217	0xbec2320d	-0.3792881
218	0xbfcb7bb1	-1.5897123
219	0xbecb47ce	-0.3970322
220	0xbee2d2fd	-0.44301596
221	0x3f6f8ebf	0.9357719
222	0x3eab9344	0.33510792
223	0xbf098ed3	-0.5373356
224	0x3e5f1b67	0.21787797
225	0xbe17fdb3	-0.14842872
226	0xbff3a4ef	-1.9034709
227	0xbe0a3951	-0.13498427
228	0x3e93e235	0.2888352
229	0xbf2ff458	-0.68732214
230	0x3f86fcbd	1.054588
231	0xbe2d5e84	-0.16930586
232	0xbdd3b120	-0.10336518
233	0x3f16b2c0	0.588665
234	0xbf87afc4	-1.0600514
235	0x3e9e3fbd	0.30908003
236	0xbd9164d9	-0.07099313
237	0xbf9ccea8	-1.2250566
238	0xbfd7d2a5	-1.6861159
239	0xbf6a0f5b	-0.9142968
240	0x3f6c6edb	0.9235665
241	0xbfc20bd1	-1.5159856
242	0xbfbd8198	-1.4805174
243	0x3e22a776	0.15884194
244	0x3efd6117	0.49488136
245	0x3e0afa05	0.13571937
246	0x3e4b9e89	0.19884695
247	0x3da7dc99	0.081963725
248	0x3fb85212	1.4400046
249	0x3f323534	0.6961243
250	0xbfa1dc1e	-1.26453
251	0x3d0ea37b	0.034823876
252	0x3f2744c5	0.6533931
253	0xbe2e5d45	-0.17027767
254	0xbec0f7e2	-0.3768912
255	0x3eb67309	0.3563464

layer1.bias f4 [64]
0	0x3f209385	0.62725097
1	0xbe0a51e0	-0.13507795
2	0x3e10c313	0.14136915
3	0xbe5f78e0	-0.21823454
4	0xbece669c	-0.4031266
5	0xbe863640	-0.26213264
6	0x3f238f25	0.63890296
7	0xbeb7c3fe	-0.35891718
8	0xbea0c7d6	-0.31402463
9	0x3f483deb	0.7821948
10	0x3e5bb03d	0.21453948
11	0x3e7ef058	0.24896371
12	0x3dea7b3d	0.11449287
13	0x3e73358b	0.23750894
14	0xbf6ca482	-0.9243852
15	0xbf0f3392	-0.55938065
16	0x3f1e8e2e	0.619357
17	0x3f0f0a7f	0.5587539
18	0x3f354f09	0.70823723
19	0x3ceb34ef	0.028711764
20	0xbeafd885	-0.3434488
21	0x3f41bf00	0.7568207
22	0xbbbdc09e	-0.005790784
23	0x3f32108d	0.69556504
24	0x3f716667	0.9429688
25	0x3e2f272c	0.17104787
26	0xbf0003a1	-0.5000554
27	0xbf15d8cc	-0.5853393
28	0x3f11a9bb	0.56899613
29	0x3f6720f7	0.90284675
30	0xbeeba5b8	-0.4602487
31	0xbdf134f8	-0.11777681
32	0x3eb15a4c	0.34639204
33	0xbf6bcf0e	-0.92112815
34	0x3f0db03c	0.5534704
35	0x3e7f9b87	0.24961673
36	0x3f31ef12	0.6950542
37	0xbe952470	-0.29129362
38	0x3ef24f08	0.4732592
39	0xbee59bde	-0.4484548
40	0x3e0786f9	0.13235082
41	0x3f05396c	0.52040744
42	0xbf18e6b1	-0.5972701
43	0x3ef730ac	0.4827932
44	0xbf70ac5c	-0.94013
45	0x3f93be7f	1.154251
46	0x3e2e6bd0	0.17033315
47	0xbf13b023	-0.5769064
48	0xbe9a3ce3	-0.30124578
49	0xbe83e973	-0.25764045
50	0x3e94994c	0.29023206
51	0x3ec159fe	0.3776397
52	0x3e6756e5	0.22591741
53	0x3f19ed84	0.60128045
54	0x3ef3a543	0.47587022
55	0x3eab8138	0.33497024
56	0x3f0efd65	0.558554
57	0x3f585871	0.8450995
58	0x3ee63495	0.44961992
59	0x3c99ddea	0.018782575
60	0x3e7982de	0.24366328
61	0xbf68bea4	-0.90915895
62	0xbf901335	-1.1255862
63	0xbf6b0e2d	-0.91818506

layer2.weight f4 [64, 64]
0	0x3e392e40	0.18084049
1	0xbe48fdea	-0.1962811
2	0xbda0ac24	-0.07845333
3	0xbeb8335e	-0.3597669
4	0x3d29f58c	0.041493937
5	0xbfe5e62e	-1.796087
6	0x3f0cca0e	0.5499581
7	0xbf432ee4	-0.76243424
8	0xbd3dc52c	-0.046330616
9	0xbebd83fb	-0.37014756
10	0x3e9cb1a8	0.3060429
11	0xbd207ef3	-0.03918357
12	0x3dcd3ac8	0.10020977
13	0x3df53c7b	0.11974426
14	0x3dd408e2	0.10353257
15	0xbf5b7e5d	-0.8573969
16	0x3e5f0ee6	0.21783027
17	0xbde6eec3	-0.11276009
18	0x3cf412f4	0.029794194
19	0x3e98b4b8	0.29825377
20	0x3e807615	0.2509009
21	0x3f001e48	0.50046206
22	0x3e7eb988	0.24875462
23	0x3ee94390	0.4555936
24	0x3e36dd97	0.17857967
25	0x3e584492	0.21119907
26	0xbffed1d0	-1.990778
27	0xbe40533f	-0.18781756
28	0x3e11da3f	0.1424341
29	0x3e8e4990	0.277905
30	0xbb1b6567	-0.0023711564
31	0xbf093803	-0.5360109
32	0x3eaad6a7	0.33366892
33	0xbf025729	-0.50914246
34	0x3ed1668a	0.40898544
35	0x3ec393e5	0.38198772
36	0x3e30c36b	0.17262046
37	0x3d8d63ad	0.06903777
38	0x3d3127b5	0.04325076
39	0xbe013365	-0.12617262
40	0x3e850ec6	0.25987834
41	0x3d95440c	0.072883695
42	0xbea01eb7	-0.31273434
43	0xbac7379f	-0.0015199071
44	0x3d713a44	0.058893457
45	0x3e7adf4d	0.24499245
46	0x3dfa3f9d	0.122191645
47	0xbfc4d82a	-1.5378468
48	0x3d2baed0	0.04191476
49	0x3affe2e1	0.0019522571
50	0x3e9d1b77	0.30685017
51	0x3e15966d	0.14608164
52	0x3de25b19	0.11052532
53	0x3ef25939	0.47333696
54	0xbd9365d9	-0.0719716
55	0x3e99fa6f	0.30073878
56	0x3f20670e	0.6265725
57	0xbcefb87a	-0.02926277
58	0xbd3533c0	-0.044238806
59	0xbeb19125	-0.3468105
60	0xbe05b996	-0.13059077
61	0xbfca5666	-1.5807617
62	0x3e516dd3	0.20452051
63	0xbee7d31a	-0.45278245
64	0x3ed20e2b	0.41026434
65	0xbe5fa714	-0.21841079
66	0x3e54c2e0	0.20777464
67	0xbf366d83	-0.7126085
68	0xbd51f79f	-0.05126154
69	0xbfc5c804	-1.5451665
70	0x3f147fb0	0.58007336
71	0xbe64f27f	-0.2235813
72	0xbe3a5c4a	-0.18199268
73	0xbe06ad8b	-0.13152139
74	0x3d78d6f7	0.06075188
75	0x3ee5f595	0.44913927
76	0x3e37574e	0.17904398
77	0x3e70b2e0	0.23505735
78	0xbe10495b	-0.14090483
79	0xbfc304ca	-1.5235837
80	0x3e9b0202	0.3027497
81	0x3f16c1e5	0.5888961
82	0x3e31a5c0	0.17348385
83	0xbebcc5cd	-0.3686966
84	0xbe1b2d78	-0.15154064
85	0x3f1aa60d	0.60409623
86	0xbdb5df1a	-0.08880444
87	0x3e5707f6	0.2099913
88	0x3e454adf	0.19266842
89	0x3d9341b4	0.07190266
90	0xbf234ea2	-0.6379186
91	0xbed21cbc	-0.41037548
92	0xbe9f7136	-0.3114106
93	0x3eeb0854	0.4590479
94	0xbd65231f	-0.055941697
95	0xbdc8e298	-0.09808844
96	0xbe214812	-0.15750149
97	0x3ec63aa2	0.38716608
98	0x3ef466bb	0.47734627
99	0x3e505000	0.20343018
100	0x3d8a8128	0.06762916
101	0x3e6a794b	0.22897832
102	0x3e64380a	0.22287002
103	0xbe3af367	-0.18256913
104	0x3c8fd964	0.017559715
105	0x3e065884	0.13119704
106	0xbdc658f6	-0.09684937
107	0x3e9da515	0.3079001
108	0xbeb6e93b	-0.35724816
109	0x3e167f62	0.1469703
110	0xbe4f59ec	-0.20249146
111	0xbffb6d4c	-1.964273
112	0x3da1dd0e	0.07903491
113	0xbe1a00c3	-0.15039353
114	0x3e6e773e	0.23287675
115	0xbde7422f	-0.112919204
116	0xbe47fb12	-0.1952937
117	0x3dc5274b	0.09626635
118	0xbe0ade3f	-0.13561343
119	0xbdab5e32	-0.08367576
120	0x3ef66972	0.48127323
121	0x3e7918d9	0.24325885
122	0x3e1eb228	0.15497649
123	0xbedce708	-0.43145013
124	0x3e820875	0.25397077
125	0xbfd0b786	-1.6306007
126	0xbd8c31cf	-0.06845438
127	0xbe0dbe01	-0.13842012
128	0xbf054d6f	-0.5207128
129	0x3f3fbfc9	0.74902016
130	0xbeb74ff0	-0.35803175
131	0x3ed257cd	0.41082612
132	0x3e5f0b01	0.21781541
133	0x3ff97974	1.949019
134	0xbfa91440	-1.3209305
135	0x3e920f0a	0.285271
136	0x3e9d52ff	0.30727383
137	0xbdef0601	-0.11671067
138	0x3ed19119	0.40931013
139	0xbecb76c0	-0.39739037
140	0xbc394fb2	-0.011310505
141	0x3e808d43	0.25107774
142	0x3f090c05	0.53533965
143	0x3fcb1f77	1.5868977
144	0xbf830212	-1.0235007
145	0xbf117cc0	-0.5683098
146	0xbf1f9f56	-0.623525
147	0x3ea802b5	0.32814565
148	0x3f70d154	0.9406941
149	0xbf60f5b6	-0.87874925
150	0x3e3684eb	0.17824142
151	0xbf58af7f	-0.84642786
152	0xbf6e5d83	-0.9311144
153	0xbf586f28	-0.8454461
154	0x3f1c58a0	0.6107273
155	0x3e9cb407	0.306061
156	0xbe4a192a	-0.19736162
157	0xbf83d870	-1.0300426
158	0x3f943002	1.1577151
159	0x3f54a33f	0.83061594
160	0x3efd3fdf	0.49462792
161	0x3e9aee25	0.30259815
162	0xbf4c01e8	-0.7969041
163	0xbc935785	-0.017986069
164	0xbf2dbdce	-0.67867744
165	0x3f0f2913	0.5592205
166	0x3e36ebc1	0.1786337
167	0x3ef08935	0.4697968
168	0xbcf87260	-0.030327976
169	0xbf36b6cb	-0.7137267
170	0x3f874a03	1.0569462
171	0xbe876afa	-0.26448804
172	0x3f0330cc	0.51246333
173	0xbe69e7e2	-0.22842363
174	0xbf3c8003	-0.7363283
175	0x3f85005b	1.0390733
176	0x3e66816d	0.2251031
177	0x3ee5f13b	0.44910607
178	0x3e83a04b	0.2570823
179	0xbf88e05c	-1.0693469
180	0x3dc24af0	0.094869494
181	0xbe8ded50	-0.27720118
182	0x3f1e3f3b	0.6181523
183	0xbeaf80ba	-0.34277898
184	0xbf1bb588	-0.6082387
185	0xbefcd3cd	-0.4938034
186	0xbec799b6	-0.3898446
187	0x3edebabc	0.43501842
188	0x3e18dda8	0.14928305
189	0x3fcc84f0	1.5978069
190	0x3f282998	0.6568847
191	0x3f6f6560	0.9351406
192	0xbe3ea465	-0.18617399
193	0x3d27d1e2	0.040971644
194	0xbddff60e	-0.10935603
195	0xbec7e61a	-0.3904274
196	0xbde3fd58	-0.11132306
197	0xbef194e4	-0.47183907
198	0xbe321fca	-0.17394939
199	0x3d22667b	0.039648514
200	0x3ea6a004	0.32543957
201	0xbe573935	-0.21017917
202	0x3d929d59	0.07158918
203	0xbeaa368f	-0.3324475
204	0xbd659fc2	-0.05606056
205	0xbe8deac6	-0.2771818
206	0x3e8cc6c9	0.2749541
207	0xbf285feb	-0.6577136
208	0xbc24ff27	-0.010070599
209	0x3e282b09	0.16422667
210	0x3c649814	0.013952274
211	0x3e2e6e27	0.17034207
212	0x3e7bea57	0.24601112
213	0xbe2fe166	-0.17175826
214	0xbe3249ba	-0.17410937
215	0xbe504372	-0.20338228
216	0xbe43b600	-0.19112396
217	0xbd890aae	-0.0669149
218	0xbf2dc273	-0.6787483
219	0xbe0c38d9	-0.1369356
220	0x3ea0c887	0.3140299
221	0xbda29337	-0.07938235
222	0xbf3e6f5b	-0.74388665
223	0xbdc7ca50	-0.09755385
224	0xbeb0584c	-0.34442365
225	0xbe6ac5e7	-0.22927056
226	0xbe4b4d91	-0.19853808
227	0xbe8fdb61	-0.2809706
228	0xbd8c4724	-0.068495065
229	0x3a347780	0.0006884262
230	0xbd8503b4	-0.06494847
231	0xbe4f4d3a	-0.20244303
232	0x3decb68b	0.11558255
233	0xbf8d24f6	-1.1026905
234	0x3da939cb	0.08262976
235	0xbe71f5bd	-0.23628898
236	0x3bf6bd3b	0.0075298822
237	0xbe80f989	-0.2519038
238	0x3e169030	0.1470344
239	0xbf014806	-0.50500524
240	0xbea95ab9	-0.33077028
241	0x3db6d222	0.089267984
242	0x3e5868c7	0.2113372
243	0x3e58db68	0.21177447
244	0x3ec2e37b	0.3806418
245	0xbed690bd	-0.41907302
246	0xbe806661	-0.2507811
247	0xbe4c62b9	-0.19959535
248	0xbe33e2c6	-0.17566976
249	0x3db73445	0.089455165
250	0x3cde9a80	0.02717328
251	0xbe5e6b62	-0.21720651
252	0x3df0a9ae	0.11751114
253	0x3cf163aa	0.029466469
254	0xbe9f4038	-0.31103683
255	0x3ec41400	0.3829651

layer2.bias f4 [64]
0	0x3ee88962	0.45417315
1	0x3f14055c	0.5782068
2	0xbf632206	-0.8872379
3	0xbe04a962	-0.1295524
4	0xbe568825	-0.20950373
5	0xbcd41d45	-0.025892863
6	0x3ef1eec0	0.47252464
7	0x3f091cdd	0.53559667
8	0xbeeff2e5	-0.46865
9	0x3e9adafb	0.30245194
10	0x3f0e6fb1	0.5563918
11	0xbc847ee4	-0.016173787
12	0xbd36233d	-0.0444672
13	0xbede329a	-0.4339798
14	0x3f045ed4	0.51707196
15	0xbe54bcfc	-0.20775217
16	0x3f041e9a	0.51609194
17	0x3f16aac4	0.5885432
18	0x3ef897ac	0.48553216
19	0x3f07844c	0.52936244
20	0x3ddec892	0.108780995
21	0xbc3cc0a2	-0.011520537
22	0x3f0676c9	0.52525
23	0xbe7a3d75	-0.24437506
24	0x3c20ad70	0.009806976
25	0x3efb0aa3	0.49031553
26	0xbe4a327a	-0.19745818
27	0x3dae81e7	0.08520871
28	0xbf583dfa	-0.8446957
29	0x3f078e8a	0.5295187
30	0xbe705af0	-0.2347219
31	0xbb449a35	-0.002999914
32	0x3ed8f017	0.42370674
33	0xbe9992d5	-0.29994836
34	0x3e9c41b7	0.30518886
35	0x3f0a2b6b	0.539725
36	0xbf06c1e1	-0.52639586
37	0x3f0bfff6	0.5468744
38	0x3f06008d	0.5234459
39	0x3f075017	0.5285658
40	0x3efee329	0.49782684
41	0xbe887955	-0.2665507
42	0xbe5dffc1	-0.21679594
43	0x3efebfcb	0.497557
44	0x3f034e3c	0.5129125
45	0x3ec9fde5	0.3945152
46	0x3e5cd893	0.21566992
47	0x3e888a82	0.26668173
48	0x3eb1cd23	0.3472682
49	0x3f065b71	0.5248328
50	0x3f00f7cb	0.503781
51	0xbf20423c	-0.62601066
52	0xbf031fdb	-0.5122048
53	0xbeb440b8	-0.35205626
54	0xbd709682	-0.058737285
55	0x3efa46a5	0.48882023
56	0x3f0a1255	0.5393422
57	0x3f0163db	0.5054299
58	0x3efe06dd	0.4961461
59	0xbe96646d	-0.29373494
60	0xbe743aee	-0.23850605
61	0x3f041e14	0.51608396
62	0xbeb95508	-0.36197686
63	0xbcaf665f	-0.021411119

layer3.weight f4 [2, 64]
0	0x3ec944fe	0.3931045
1	0x3f52cdef	0.8234548
2	0xc01bea49	-2.4361746
3	0xbe5df30f	-0.21674751
4	0xbf60f250	-0.8786974
5	0x3f47210a	0.7778479
6	0x3f78bc72	0.97162545
7	0x3f3b9bae	0.73284423
8	0xbf504247	-0.8135113
9	0xbd96a705	-0.07356075
10	0x3f63c7db	0.8897683
11	0xbe915885	-0.28387848
12	0xbe121d94	-0.14269096
13	0xbfccdfa7	-1.6005753
14	0x3f2a3415	0.6648572
15	0xbf775d9c	-0.9662721
16	0x3f79c2e6	0.97563016
17	0x3f67f462	0.90607274
18	0x3efee3e7	0.4978325
19	0x3f7239ae	0.9461926
20	0xbf5a277f	-0.85216516
21	0xbf70e201	-0.94094855
22	0x3f306778	0.6890788
23	0xbfb9fdc5	-1.4530569
24	0x3d475b85	0.048671264
25	0x3ee35c47	0.4440634
26	0xbf3a25a5	-0.7271369
27	0xbe7c1fdc	-0.24621528
28	0xc05ff95d	-3.499595
29	0x3f681ebb	0.9067189
30	0xc0888a2b	-4.266866
31	0xbdd5f7c5	-0.10447649
32	0x3f020589	0.50789696
33	0xbfe14c5d	-1.7601429
34	0x3e5ccb21	0.21561863
35	0x3f7d9af4	0.99064565
36	0xbf5acf62	-0.8547269
37	0x3f59f414	0.8513806
38	0x3f6ba0f4	0.9204247
39	0x3f532d8e	0.82491386
40	0x3f1f0660	0.621191
41	0xbfbfe661	-1.4992181
42	0xc02853d2	-2.630116
43	0x3f17e836	0.593387
44	0x3f97dbdf	1.1863974
45	0x3f09bdd0	0.53805256
46	0xbfebc348	-1.841897
47	0xbf6b8a04	-0.9200747
48	0xbfa9e6b8	-1.3273535
49	0x3f712d96	0.94210184
50	0x3f07e38f	0.530816
51	0xbffb4103	-1.9629215
52	0xbf8cb50b	-1.099275
53	0xbfe046e5	-1.7521635
54	0xbf84daf0	-1.0379314
55	0x3f012a37	0.5045504
56	0x3f46f5ed	0.77719
57	0x3f28287d	0.6568678
58	0x3f5dcd56	0.8664144
59	0xc01676d9	-2.351004
60	0xbfeca7e4	-1.8488736
61	0x3f744739	0.9542118
62	0xc02e92df	-2.7277143
63	0xbd5d63cd	-0.054050256
64	0x3f103dc7	0.56344265
65	0x3f1ac151	0.6045123
66	0xc03a5389	-2.9113486
67	0xbf19f6ab	-0.6014201
68	0xbefd08f5	-0.49420896
69	0xbf796dbd	-0.9743307
70	0x3f65c8f8	0.8975978
71	0x3f75506b	0.95825833
72	0x3d0f5bcf	0.034999665
73	0xbf7e0c69	-0.99237686
74	0x3f369354	0.71318555
75	0xbe984d06	-0.29746264
76	0xbe9793fc	-0.2960509
77	0xc00e592d	-2.2241929
78	0x3f2e1f39	0.6801639
79	0x3f91ddfc	1.1395869
80	0x3f6adabf	0.9174003
81	0x3f68712e	0.907977
82	0x3ebe89c3	0.3721448
83	0x3f5d9c44	0.8656657
84	0x3ecc43c4	0.3989545
85	0xc04c8478	-3.1955853
86	0x3f266873	0.65003127
87	0xbfe8db62	-1.819195
88	0xbf018d57	-0.5060629
89	0x3ecd3262	0.40077502
90	0xbe70c7d9	-0.23513736
91	0xbfa64a48	-1.2991419
92	0xc06aa114	-3.6660814
93	0x3f257630	0.64633465
94	0xbe48d182	-0.19611171
95	0x3e6e27e1	0.232574
96	0x3f616bfd	0.880554
97	0xbf8211a2	-1.0161631
98	0xbd22e70d	-0.03977113
99	0x3f43f764	0.76549363
100	0xbfcaa4d5	-1.5831553
101	0x3f27ae6e	0.65500534
102	0x3f452a88	0.7701802
103	0x3f4e8c7c	0.8068311
104	0x3efa018f	0.48829314
105	0xbfea9197	-1.832568
106	0xbff4693e	-1.9094617
107	0x3edc92df	0.43080804
108	0x3fa288e0	1.2698021
109	0x3e9aa138	0.30201125
110	0xbf5ca5a4	-0.8619025
111	0xbf96f2f1	-1.179289
112	0xbf92c24e	-1.1465547
113	0x3f4e6489	0.80622154
114	0x3f1f6a51	0.622716
115	0xbfc78ace	-1.5589235
116	0xbfae2c72	-1.3607314
117	0xbfd536f3	-1.6657394
118	0x3e8387ef	0.25689647
119	0x3f89684f	1.0734957
120	0x3f2a7814	0.66589475
121	0x3f8b1e8b	1.0868696
122	0x3f473a51	0.7782336
123	0xbfecb3d4	-1.8492379
124	0xbfcebfbf	-1.6152266
125	0x3f91e0fb	1.1396784
126	0xc02b0c12	-2.6726117
127	0xbe1052b1	-0.14094044

layer3.bias f4 [2]
0	0x3ef6eeed	0.4822916
1	0x3eeab25b	0.458392
